load train_state from config
load train_state from config
in ddp_sampler: num_replicas: 2
in ddp_sampler: rank: 1
in ddp_sampler: num_replicas: 2
in ddp_sampler: rank: 0
====== Model, loaders, optimimzer created =======
model: DistributedDataParallel(
  (module): CTC_train(
    (conv): Sequential(
      (0): Conv2d(1, 64, kernel_size=(11, 41), stride=(1, 2), padding=(0, 20))
      (1): BatchNorm2d(64, eps=1e-05, momentum=0.1, affine=True, track_running_stats=True)
      (2): ReLU()
      (3): Dropout(p=0.4)
      (4): Conv2d(64, 64, kernel_size=(11, 21), stride=(1, 2), padding=(0, 10))
      (5): BatchNorm2d(64, eps=1e-05, momentum=0.1, affine=True, track_running_stats=True)
      (6): ReLU()
      (7): Dropout(p=0.4)
      (8): Conv2d(64, 128, kernel_size=(11, 21), stride=(1, 1), padding=(0, 10))
      (9): BatchNorm2d(128, eps=1e-05, momentum=0.1, affine=True, track_running_stats=True)
      (10): ReLU()
      (11): Dropout(p=0.4)
    )
    (rnn): LSTM(8320, 1024, num_layers=5, batch_first=True, dropout=0.4)
    (fc): LinearND(
      (fc): Linear(in_features=1024, out_features=40, bias=True)
    )
  )
)
====== Model, loaders, optimimzer created =======
model: DistributedDataParallel(
  (module): CTC_train(
    (conv): Sequential(
      (0): Conv2d(1, 64, kernel_size=(11, 41), stride=(1, 2), padding=(0, 20))
      (1): BatchNorm2d(64, eps=1e-05, momentum=0.1, affine=True, track_running_stats=True)
      (2): ReLU()
      (3): Dropout(p=0.4)
      (4): Conv2d(64, 64, kernel_size=(11, 21), stride=(1, 2), padding=(0, 10))
      (5): BatchNorm2d(64, eps=1e-05, momentum=0.1, affine=True, track_running_stats=True)
      (6): ReLU()
      (7): Dropout(p=0.4)
      (8): Conv2d(64, 128, kernel_size=(11, 21), stride=(1, 1), padding=(0, 10))
      (9): BatchNorm2d(128, eps=1e-05, momentum=0.1, affine=True, track_running_stats=True)
      (10): ReLU()
      (11): Dropout(p=0.4)
    )
    (rnn): LSTM(8320, 1024, num_layers=5, batch_first=True, dropout=0.4)
    (fc): LinearND(
      (fc): Linear(in_features=1024, out_features=40, bias=True)
    )
  )
)
preproc: 
train_status: True
preprocessor: log_spectrogram
window_size: 32
step_size: 16
use_feature_normalize: True
augment_from_normal: True
tempo_gain_pitch_perturb: True
tempo_gain_pitch_prob: 0.5
tempo_range: [0.8, 1.2]
gain_range: [-5, 5]
pitch_range: [-250, 250]
synthetic_gaussian_noise: True
gauss_noise_prob: 0.5
gauss_snr_db_range: [15, 50]
…
